…
Scaling features...
Creating sequences (length=60)...
  Created 2,697 sequences
  Sequence shape: (2697, 60, 67)
Splitting data...
  Train: 1,888 samples
  Val:   404 samples
  Test:  405 samples
  Train UP: 971/1888 (51.4%)
  Val UP:   208/404 (51.5%)
  Test UP:  208/405 (51.4%)
Building LSTM model...
  Model built successfully
Model: "sequential"
+--------------------------------------------------------------------------+
| Layer (type)                    | Output Shape           |       Param # |
|---------------------------------+------------------------+---------------|
| lstm (LSTM)                     | (None, 60, 128)        |       100,352 |
|---------------------------------+------------------------+---------------|
| dropout (Dropout)               | (None, 60, 128)        |             0 |
|---------------------------------+------------------------+---------------|
| batch_normalization             | (None, 60, 128)        |           512 |
| (BatchNormalization)            |                        |               |
|---------------------------------+------------------------+---------------|
| lstm_1 (LSTM)                   | (None, 60, 64)         |        49,408 |
|---------------------------------+------------------------+---------------|
| dropout_1 (Dropout)             | (None, 60, 64)         |             0 |
|---------------------------------+------------------------+---------------|
| batch_normalization_1           | (None, 60, 64)         |           256 |
| (BatchNormalization)            |                        |               |
|---------------------------------+------------------------+---------------|
| lstm_2 (LSTM)                   | (None, 32)             |        12,416 |
|---------------------------------+------------------------+---------------|
| dropout_2 (Dropout)             | (None, 32)             |             0 |
|---------------------------------+------------------------+---------------|
| batch_normalization_2           | (None, 32)             |           128 |
| (BatchNormalization)            |                        |               |
|---------------------------------+------------------------+---------------|
| dense (Dense)                   | (None, 16)             |           528 |
|---------------------------------+------------------------+---------------|
| dropout_3 (Dropout)             | (None, 16)             |             0 |
|---------------------------------+------------------------+---------------|
| dense_1 (Dense)                 | (None, 1)              |            17 |
+--------------------------------------------------------------------------+
 Total params: 163,617 (639.13 KB)
 Trainable params: 163,169 (637.38 KB)
 Non-trainable params: 448 (1.75 KB)

Starting training...

Epoch 1/150

[1m 1/59[0m [37m====================[0m [1m3:16[0m 3s/step - accuracy: 0.5312 - loss: 0.9712 - precision: 0.5556 - recall: 0.8333
[1m 3/59[0m [32m=[0m[37m===================[0m [1m1s[0m 35ms/step - accuracy: 0.5260 - loss: 0.9182 - precision: 0.5331 - recall: 0.8734
…
